workfor_model.pkl (torch_old, 13528 bytes, 2 tensors)

linear.weight f4 [2, 1620]
00000000: 47a8 f0bb d48d 243b a3b5 d73e 6f77 803d
00000010: d40a 073f dad1 0ebd bc2f 873b e3c7 0c3f
00000020: 1794 f6bb 08f0 923b 4c7d 8abc 8f2a 39bc
00000030: 01ca 4abb f7ae e0bb 2a6a d8bb eb8d 81bc
00000040: e8b6 cb3b 59cf 0a3f 46a7 0bbd 5b26 b63d
00000050: de61 fcb9 25ed 08bc a138 c5bc 963c ae3b
00000060: 6a35 cbbc 2c01 58bb 49ba 6aba 743b c7bb
00000070: be90 6a3c 2851 efbb 2dba 8e3b 2246 1bbc
00000080: 2992 bbbc 59f7 8a3c dace c4bc f090 d03a
00000090: f269 623c b850 c8bc 9999 daba baae 9e3c
000000a0: ac2a 073c 38d2 b3bc 2ba9 5ebc 146f a1bb
000000b0: 4757 483c a741 dcba e42d e13a c267 ab3c
000000c0: 10c8 453c 6d7f 033c d0d8 91ba d21b 3abc
000000d0: bb02 3abc 96fd 493c dde5 84bb fc91 923c
000000e0: df4d b4bc 7d0b acba 2dc1 a3bc 9ffd 1e3c
000000f0: 755f 423c 188f c2bb acb2 b83c 0ae8 77bb
00000100: a91a b43c a307 f63b ffaf 9b3c 85db 46bc
00000110: 5883 57bc 9d03 9b3c 73b4 aabc 0d00 713c
00000120: e29e 4ebc fade c13c 1eb4 b43b c849 d93b
00000130: 433c 313c a93c babc 34bd a33c 21d3 ed3b
00000140: e2c7 19bb 8f4b a7bc ba35 a6bc 53ec bb3b
00000150: 3eea 213c f7aa 9fbc b942 cb3b 1637 24bc
00000160: d435 883c b1da 2fbc 1a52 193b 1d7c 91bc
00000170: 698f 283a 4a76 db3c 5b0f c23c 6d57 0ebc
00000180: 20d4 1fbc 32ab 863c e18c 293c cb9a d03a
00000190: 040b 873c 6a83 bd3c 64cf e1bc 37f6 24bc
000001a0: d9bc 97bb 488c 8d3c abd5 673c eabd d63b
000001b0: fa87 033c 05b9 073c f731 67bc 80d8 bb3c
000001c0: 84ab 993b 1d72 6d3c 6b0a 0c3c abce 35bc
000001d0: dd31 bbbc 45d7 ecbc 2431 753c 2beb 84bc
000001e0: c119 9d3c 5657 1a3c b201 793c 4306 13bc
000001f0: 37f2 143b 7240 14bc 24ad b2bb eff6 83bc
00000200: a785 b93c f381 9cbc 1b63 59bc da42 c93c
00000210: f320 24ba bc19 81bc 4322 e9bb 83a0 c1bb
00000220: 9942 a93c 2a93 af3c f885 ef3b db2b af3c
00000230: f355 103c 319e e03b f008 773b 19c6 aebc
00000240: a16d 923d 48a0 6b3c 8dc2 12bc baa5 153c
00000250: 634f ba3c 302c a43c 0496 093a 8a03 e8bb
00000260: 2cf9 e3bc 8c44 e9bc bf32 0dbc 237f 9c3c
00000270: 1c98 78bb e378 82bc 505a c4bc e6ec cfbc
00000280: a9fd 31ba 3634 25bc e119 993b 32e6 a3bc
00000290: 84aa a03b b635 a53b b845 2f3b 2f9a 473b
000002a0: 0778 81bc c378 8f3c 792e 733c a9ec 473c
000002b0: a744 acbc 40d6 483c cbff 123c c46d 413c
000002c0: 210d 23bc a172 b7bc 1034 7f3b 5ffc 003c
000002d0: 6c50 feba a63b 0fbb 7f68 c7bc 43d8 183c
000002e0: 13d3 a43a f03e c93b ba63 b1bc 12f2 9bbc
000002f0: 5e39 a53c 9a5a 92bc ac8e 15bc 18aa 353c
00000300: dc06 a93b 8e30 2b3c 83a4 b23c 68d4 5d39
00000310: 00b4 863b 1326 33bc 18be e4b9 13a0 babc
00000320: e7c1 a93c dc34 2e3c 6850 a0bc d49a c43c
00000330: a1a1 71bc 63d4 9a3c 555d 493b 8816 88bc
00000340: 2227 60bb e8d3 22bc 1582 a63c be12 47bc
00000350: ef81 c53a 481a a13c 2281 c2bb 9f2b a03a
00000360: 6c35 a23b 2fee a33c 9c9e 95ba b8c8 abbc
00000370: d901 a9bc 52ba 56bb 9757 7cbc ba04 883c
00000380: 51b4 bd3c 2203 8e3c 9c4b 343c 483d dbba
00000390: 741a 4b3c a84d 70bc b155 b9bb b005 903c
000003a0: b353 59bb 3a92 88bb acd2 8ebc 473b 1f3c
000003b0: 7cea a13c 6da2 8ebb 788a 4ebc e79f 28bb
000003c0: c1f9 0b3c e93b b73c 995c 9a3b 5e88 083c
000003d0: 7094 c63c 55d4 233c 7037 d43a 02cf 6cbc
000003e0: d5c4 ecb9 dbf7 82bc 2a24 4ebc 66c8 c1bc
000003f0: 1055 a53c 9476 8e3c 6041 963c 47e7 343c
-0.007344279 0.002510895 0.42130765 0.0627278 0.527509 -0.0348681 0.0041255634 0.549925
-0.007524978 0.0044841804 -0.01690545 -0.011301651 -0.0030943158 -0.006856795 -0.0066044526 -0.015814742
0.0062168725 0.5422264 -0.03409507 0.088940345 -0.00048138102 -0.008357321 -0.024074854 0.005317281
-0.024805743 -0.0032959683 -0.000895415 -0.0060800854 0.014316736 -0.0073033758 0.00435569 -0.00947717
-0.022896843 0.016963648 -0.024024416 0.0015912335 0.013819205 -0.024452552 -0.0016677856 0.019370425
0.00824992 -0.021950826 -0.0135901375 -0.0049265716 0.01222784 -0.0016804234 0.0017179814 0.020923499
0.012071624 0.008025986 -0.0011127237 -0.011359172 -0.01135319 0.012328526 -0.004055722 0.017891876
-0.022009788 -0.0013125982 -0.019989574 0.009704023 0.011863579 -0.0059374683 0.022546135 -0.0037827515
0.021985369 0.0075082346 0.01900482 -0.0121372985 -0.013153873 0.018922621 -0.020837998 0.014709485
-0.012611123 0.023665894 0.0055146357 0.00663111 0.01081759 -0.022734003 0.01998768 0.0072578345
-0.0023465087 -0.020421771 -0.02028929 0.005734959 0.009882508 -0.019490702 0.0062030223 -0.010022899
0.01662723 -0.010733292 0.0023394884 -0.017759377 0.0006430061 0.026789803 0.023688963 -0.008687836
-0.009755164 0.016439054 0.01034853 0.0015915273 0.016484745 0.023133952 -0.027564712 -0.010068468
-0.0046306667 0.017278805 0.0141500635 0.0065534012 0.008028025 0.008283858 -0.014111034 0.022930384
0.0046896357 0.014492539 0.008547406 -0.011096637 -0.022850925 -0.028911242 0.014965329 -0.016225418
0.01917732 0.009420237 0.015198158 -0.008973661 0.002272738 -0.009048568 -0.005452769 -0.016108958
0.022646738 -0.019104933 -0.0132682575 0.02456801 -0.00062610133 -0.015759341 -0.00711468 -0.005909027
0.020661639 0.021432478 0.0073096715 0.021383217 0.008809554 0.0068547954 0.0037694536 -0.021334695
0.07149816 0.014381476 -0.008957517 0.009133751 0.022742933 0.020040601 0.00052484893 -0.0070805
-0.027828775 -0.028475069 -0.008618056 0.019103592 -0.003793246 -0.015926784 -0.023968846 -0.025381517
-0.00067898125 -0.010083249 0.0046722745 -0.020007227 0.0049031395 0.0050418032 0.0026744436 0.003045689
-0.015804304 0.017513638 0.014842623 0.01220242 -0.02102883 0.012258112 0.008972119 0.011805955
-0.009951861 -0.022393527 0.0038940944 0.00787267 -0.001940263 -0.0021855622 -0.02434182 0.009328905
0.0012575112 0.006141536 -0.021653999 -0.019036327 0.020168956 -0.017865468 -0.009128254 0.011087917
0.0051582884 0.010448588 0.02180696 0.0002115533 0.004110813 -0.010934371 -0.0004362918 -0.022781407
0.020722343 0.01063272 -0.01956959 0.023999609 -0.014748008 0.018900102 0.0030725796 -0.016612306
-0.0034203012 -0.009938218 0.0203257 -0.012150465 0.001506863 0.019665852 -0.005935804 0.0012220031
0.004950216 0.020011036 -0.0011415067 -0.020969734 -0.020630764 -0.0032764864 -0.015401742 0.016603816
0.02315727 0.017335478 0.011004355 -0.0016726637 0.012396444 -0.014666952 -0.005655967 0.017580837
-0.003316146 -0.004167822 -0.01743444 0.009718723 0.019765131 -0.0043528588 -0.012606256 -0.0025730075
0.008543433 0.022367435 0.0047107455 0.008333294 0.024240702 0.009999354 0.0016190838 -0.014453651
-0.0004516008 -0.015987327 -0.012581864 -0.023655128 0.020182163 0.017390527 0.01834172 0.011041469

linear.bias f4 [2]
00000000: e616 95bf 0c88 943f
-1.1647613 1.1604018
